ANN_dataset/teg_ann_model.pt (torch, 22109 bytes, 6 tensors)

network.0.weight f4 [64, 6]
0	0x3eb49aac	0.35274255
1	0xbedea03c	-0.43481624
2	0xbeb89a40	-0.36055183
3	0xbdf083b6	-0.11743872
4	0xbe2ea932	-0.1705673
5	0xbe95a36f	-0.29226252
6	0xbd00a885	-0.031410713
7	0xbdfda10e	-0.12384234
8	0x3eff78ea	0.49896938
9	0xbe3ef69f	-0.18648766
10	0x3ef38662	0.47563463
11	0xbdf85d81	-0.121272095
12	0xbc355972	-0.011068689
13	0xbc9c1797	-0.019054217
14	0xbd059e50	-0.03262168
15	0xbc9ccc31	-0.019140335
16	0x3f3f287e	0.7467116
17	0xbb6e9618	-0.003640538
18	0xbe85eb02	-0.2615586
19	0x3e63ffaa	0.22265497
20	0x3e915390	0.28384066
21	0xbe82ebc1	-0.2557049
22	0xbf3e039b	-0.7422425
23	0x3e7b8479	0.24562253
24	0xbe88f98e	-0.26752895
25	0xbe88978e	-0.26678127
26	0x3e4d03b0	0.20020938
27	0x3e88cd6d	0.26719227
28	0xbec05f8c	-0.37572896
29	0xbe9e7f43	-0.30956468
30	0xbe7e857c	-0.24855608
31	0x3e4cfa44	0.20017344
32	0xbfa38761	-1.2775689
33	0xbe749068	-0.23883212
34	0x3e93ffa4	0.28905976
35	0xbfc437e5	-1.5329558
36	0x3e7085f8	0.23488605
37	0xbe81a939	-0.2532442
38	0xbe658074	-0.22412282
39	0xbec4c1d9	-0.38429144
40	0x3f045dcc	0.5170562
41	0x3e71fe73	0.23632221
42	0x3eb8492b	0.35993323
43	0x3ecccdea	0.4000085
44	0xbddfdf0e	-0.10931216
45	0x3eae4f0c	0.34044683
46	0x3ee816b8	0.45329833
47	0x3f110be9	0.566588
48	0x3d3d32d6	0.04619106
49	0x3d93bffa	0.07214351
50	0x3d915680	0.07096577
51	0x3c7d8c71	0.015475378
52	0xbf6a33de	-0.91485393
53	0xbd99f941	-0.075182445
54	0xbe6c78d2	-0.23092964
55	0x3eae3a48	0.3402884
56	0xbcd1fd1e	-0.025633391
57	0xbaa6a5f3	-0.0012714252
58	0xbec37de2	-0.38181978
59	0xbdf5555a	-0.1197917
60	0x3e589ba7	0.21153127
61	0xbe48daee	-0.19614765
62	0x3e94e2f0	0.2907939
63	0x3d9ee00e	0.07757579
64	0xbf3c2cd6	-0.73505914
65	0x3dabb03a	0.08383222
66	0x3e432e96	0.1906074
67	0x3d2900ee	0.041260652
68	0xbe63b779	-0.22237958
69	0xbeb91a4e	-0.3615288
70	0xbe8ff5e0	-0.28117275
71	0x3e1c5e6b	0.15270393
72	0xbef42bd9	-0.47689703
73	0x3d8805ed	0.06641755
74	0x3e4391c8	0.1909858
75	0xbf05071a	-0.5196396
76	0x3f6395fe	0.88900745
77	0xbf8111a7	-1.0083512
78	0x3e449ba5	0.19199999
79	0xbb18496b	-0.002323712
80	0xbe9c1eb0	-0.30492163
81	0xbe7768c4	-0.24161059
82	0x3e5d7a1f	0.21628617
83	0x3e665716	0.22494158
84	0xbe5897f0	-0.2115171
85	0x3e553ae7	0.2082325
86	0x3eb65163	0.35608968
87	0x3e400121	0.1875043
88	0xbf122e95	-0.5710233
89	0x3e043678	0.12911403
90	0x3eadd18d	0.33948937
91	0xbe5e5569	-0.21712269
92	0xbe1dca3a	-0.15409175
93	0x3ec443af	0.38332888
94	0x3ec793e5	0.38980022
95	0xbf0f3de2	-0.559538
96	0x3f1ee5ad	0.6206921
97	0xbcb06fee	-0.021537747
98	0xbd964293	-0.07336917
99	0xbdd12128	-0.10211402
100	0xbed14384	-0.40871823
101	0x3d87f88c	0.066392034
102	0x3ef4cf0d	0.47814217
103	0x3e97bbc4	0.2963544
104	0xbeae8ff8	-0.34094214
105	0x3cfdb60d	0.030970598
106	0xbe9a0191	-0.3007932
107	0xbdc11124	-0.094270974
108	0x3e2748d5	0.16336377
109	0xbec96ea1	-0.39342216
110	0x3eb1afa3	0.34704313
111	0xbdb70427	-0.08936339
112	0x3e86fd9c	0.26365364
113	0xbeca3c1b	-0.39498982
114	0x3ef39e50	0.4758172
115	0x3e12a826	0.14321956
116	0x3dd27ccf	0.102777116
117	0x3ec874a0	0.39151478
118	0xbf0e672e	-0.5562619
119	0x3c7cc556	0.015427908
120	0xbbe4331a	-0.0069640996
121	0xbb91293c	-0.0044299643
122	0x3bea43d5	0.0071491995
123	0x3ccc0c3f	0.024908183
124	0xbf072873	-0.52796096
125	0x3d107b38	0.03527376
126	0x3e3ec04e	0.18628046
127	0xbee3b01e	-0.44470304
128	0x3e1b647d	0.15175052
129	0x3c1f5e01	0.009727002
130	0xbeca54d8	-0.39517856
131	0x3e91e916	0.28498143
132	0x3d63522f	0.0554983
133	0x3e13e487	0.14442645
134	0x3e53d44b	0.20686452
135	0x3e5ece90	0.21758485
136	0x3f08f247	0.53494686
137	0x3e882a78	0.265949
138	0xbe93bcb2	-0.288549
139	0x3eca820c	0.39552343
140	0x3e7f281f	0.24917649
141	0xbe9dfa32	-0.30854946
142	0xbe866b4c	-0.26253736
143	0xbe809bef	-0.25118968
144	0xbe2f992d	-0.17148276
145	0xbd9af739	-0.07566685
146	0xbd19c6b8	-0.03754303
147	0xbea35019	-0.31897047
148	0x3e1e5c7c	0.15464967
149	0xbeae8ad6	-0.34090298
150	0xbf277127	-0.6540703
151	0x3f2dc3d6	0.67876947
152	0xbf764d9b	-0.96212167
153	0x3e9afba2	0.30270106
154	0xbf524174	-0.82131124
155	0xbe5e8293	-0.21729498
156	0xbe60af7b	-0.2194194
157	0xbd641688	-0.05568555
158	0xbec85763	-0.3912917
159	0xbe5de465	-0.21669157
160	0x3de920ed	0.11383233
161	0xbecb4ce6	-0.39707106
162	0xbd9da6ca	-0.07697828
163	0xbe75ad45	-0.23991878
164	0xbe2210b3	-0.15826683
165	0xba9b5a54	-0.0011852481
166	0xbf1aa80a	-0.6041266
167	0x3e8dd00f	0.276978
168	0xbea7832c	-0.32717264
169	0xbce07073	-0.02739737
170	0x3efbf915	0.49213472
171	0xbec30099	-0.38086393
172	0xbec37ba6	-0.38180274
173	0x3da491b1	0.08035601
174	0x3cebea01	0.028798105
175	0xbcd04120	-0.025421679
176	0x3c3c0645	0.011476104
177	0x3d430125	0.047608513
178	0xbecf9b1c	-0.40548027
179	0x3d607b49	0.054805074
180	0x3dd0c361	0.101935156
181	0x3dfeaaa7	0.12434893
182	0xbd5e7689	-0.054312263
183	0xbd92e1e4	-0.071719915
184	0x3e022736	0.1271027
185	0xbe6ec3ad	-0.23316832
186	0xbe8feba0	-0.28109455
187	0xbead8ea8	-0.338979
188	0x3eb32096	0.349858
189	0x3d741b19	0.059596155
190	0x3d638ab8	0.055552214
191	0x3e502030	0.20324779
192	0x3abc1805	0.001435042
193	0x3d87fff1	0.06640614
194	0x3e7c6b9d	0.24650426
195	0xbb863513	-0.0040956824
196	0x3f4a05f7	0.7891535
197	0xbee36c17	-0.44418404
198	0x3c787516	0.015164634
199	0xbd6f3562	-0.05840052
200	0x3ea654fc	0.32486713
201	0xbec63a70	-0.3871646
202	0xbeb01396	-0.34389943
203	0x3e6a5003	0.22882085
204	0xbebf6f55	-0.37389627
205	0xbe80108e	-0.2501263
206	0x3e9de08f	0.30835387
207	0x3e1de677	0.15419947
208	0xbec03813	-0.3754278
209	0x3e4f2e69	0.20232548
210	0xbbafb5fb	-0.00536227
211	0xbe061afd	-0.13096233
212	0xbd6c08f1	-0.057625715
213	0xbe009525	-0.12556894
214	0xbeff83e4	-0.49905312
215	0x3d145479	0.036213372
216	0xbe8c010b	-0.27344546
217	0x3e1eec13	0.15519743
218	0xbe8f825b	-0.2802914
219	0xbe987880	-0.29779434
220	0x3e83e329	0.25759247
221	0xbe063052	-0.1310437
222	0xbcfec123	-0.031097954
223	0x3eb109df	0.34577844
224	0x3e37a290	0.17933106
225	0x3ecc2455	0.3987147
226	0x3ea947eb	0.33062682
227	0x3c668c4a	0.014071533
228	0xbc9b7c13	-0.018980062
229	0x3de4bff3	0.11169424
230	0x3eb4b0e5	0.3529121
231	0x3db08f71	0.08621109
232	0x3eee6f4a	0.46569282
233	0xbd0384b6	-0.032108985
234	0xbe91e433	-0.28494415
235	0xbe74302b	-0.238465
236	0xbe9f18f8	-0.31073737
237	0xbea5b5cf	-0.3236527
238	0xbeaf9df8	-0.34300208
239	0xbe8b8956	-0.27253217
240	0x3e3c5b62	0.18394235
241	0x3e0b68b2	0.13614157
242	0xbeca73ad	-0.3954138
243	0xbe9e5ecd	-0.30931702
244	0xbd950f46	-0.07278304
245	0x3ea23ea1	0.31688407
246	0xbe526425	-0.20546015
247	0x3eb39d40	0.3508091
248	0xbe5f65ca	-0.21816173
249	0x3e816337	0.25271007
250	0x3d4996fa	0.049216248
251	0x3dcae726	0.09907369
252	0xbf0796a4	-0.52964234
253	0xbea83339	-0.3285158
254	0x3e953c4e	0.2914757
255	0x3f02b299	0.5105377

network.0.bias f4 [64]
0	0x3ca5f3a5	0.02025778
1	0x3e1a5c39	0.15074243
2	0xbe0ee88d	-0.13955899
3	0x3ea59edc	0.32347763
4	0x3e59fbeb	0.21287505
5	0xbd9639ee	-0.07335268
6	0x3e9b236f	0.3030047
7	0x3d9f6a4b	0.07783946
8	0x3e140827	0.14456235
9	0xbebe0f71	-0.37121156
10	0x3cf528ba	0.029926647
11	0x3e914b8a	0.28377944
12	0xbe8f23fb	-0.27957138
13	0x3ebe0edf	0.3712072
14	0x3ccead8d	0.02522924
15	0xbcb9b3fe	-0.022668835
16	0xbed49f13	-0.41527614
17	0xbda08f1b	-0.07839795
18	0xbea0c539	-0.3140047
19	0x394c5c39	0.00019489312
20	0x3dee413c	0.11633536
21	0x3dd779b0	0.10521257
22	0xbe282545	-0.16420467
23	0x3ecac661	0.39604476
24	0xbe0c51fc	-0.1370315
25	0xbef485b3	-0.47758254
26	0xbe6da1d8	-0.2320627
27	0x3eb48e12	0.3526464
28	0x3c51beab	0.012801806
29	0xbdd6fdc7	-0.10497623
30	0xbe9455f0	-0.28971815
31	0x3e494987	0.19656955
32	0xbde6b816	-0.1126558
33	0x3ec4fbcc	0.38473356
34	0x3ed40172	0.41407353
35	0x3ed753b4	0.42056048
36	0xbea2cccb	-0.3179687
37	0x3e27325a	0.16327801
38	0xbc233a6a	-0.0099626575
39	0x3d93c140	0.07214594
40	0xbebf4f85	-0.37365356
41	0x3ee7798a	0.45209914
42	0x3df5aa14	0.119953305
43	0xbec842a9	-0.39113358
44	0x3e8062a6	0.25075263
45	0x3e881175	0.2657582
46	0x3ed079b4	0.40717852
47	0xbe72ab63	-0.23698191
48	0x3cef0afd	0.029180044
49	0xbe4aa5fe	-0.19789883
50	0x3ebdc0d3	0.37061176
51	0xbea1ce3b	-0.31602654
52	0xbebd2819	-0.36944655
53	0x3ed2055d	0.41019717
54	0xbbdd638c	-0.0067562517
55	0xbe41b769	-0.18917622
56	0xbd695c78	-0.05697295
57	0x3e951b52	0.29122406
58	0x3eb7339a	0.35781556
59	0xbed3e368	-0.41384435
60	0xbd8cccd0	-0.068750024
61	0x3eabdf51	0.33568814
62	0x3e851614	0.25993407
63	0x3e431ff2	0.19055155

network.2.weight f4 [64, 64]
0	0x3ce0ee38	0.027457342
1	0xbded0520	-0.11573243
2	0xbda64d60	-0.08120227
3	0x3d3d5c30	0.046230495
4	0x3ddcf38e	0.10788642
5	0x3df0523a	0.117344335
6	0xbdab2d82	-0.08358289
7	0xbd7fd0de	-0.06245505
8	0x3ade57a6	0.0016963377
9	0xbc96d7d8	-0.01841347
10	0xbd832205	-0.06402973
11	0x3dd14179	0.10217566
12	0x3dd63f34	0.10461274
13	0xbd1b6767	-0.03794041
14	0xbd61ae1b	-0.05509768
15	0xbd5d3100	-0.05400181
16	0x3dd1a20b	0.10235985
17	0xbcfea451	-0.031084212
18	0x3d3400f0	0.043946207
19	0xbd5996f9	-0.053122494
20	0x3cb9a228	0.02266033
21	0x3a17b110	0.0005786577
22	0xbd9ad580	-0.07560253
23	0x3dc4d1fc	0.09610364
24	0x3cdc34a8	0.026880577
25	0xbd8c36d4	-0.06846395
26	0x3bb1bd00	0.005424142
27	0xbd3aa9e2	-0.04557217
28	0x3dba1b42	0.0908723
29	0xbcef31b3	-0.029198503
30	0xbd28a268	-0.041170508
31	0xbded610b	-0.11590775
32	0xbc9180e5	-0.017761657
33	0xbbb25f4a	-0.0054434882
34	0x3d814594	0.06312099
35	0xbb631df7	-0.0034655312
36	0x3d883fe4	0.06652811
37	0xbd3dad1c	-0.046307668
38	0xbe013a89	-0.12619986
39	0x3df4a588	0.11945635
40	0xbdcef980	-0.10106182
41	0xbe002982	-0.12515834
42	0x3dbfd089	0.09365947
43	0x3d96b362	0.07358433
44	0xbd882032	-0.06646766
45	0xbcefe9de	-0.029286321
46	0x3d913b03	0.07091334
47	0x3b708480	0.003670007
48	0xbc6ae213	-0.014336127
49	0xbd459fc7	-0.04824808
50	0xbd1cd2cd	-0.038286973
51	0x3d8a673e	0.06757973
52	0x3cfccfd0	0.030860811
53	0xbdafd927	-0.085863404
54	0xbd268bdb	-0.04066072
55	0x3d99e2cb	0.075139605
56	0x3d24378e	0.040092044
57	0xbd22286d	-0.039589334
58	0xbda3dd5e	-0.08001207
59	0xbcc77c40	-0.02435124
60	0x3d98879c	0.074477404
61	0xbe05a474	-0.13051015
62	0x3dcea8d2	0.10090794
63	0xbc23dd5a	-0.010001505
64	0xbee4644f	-0.4460778
65	0x3dd2a143	0.102846645
66	0xbee5af56	-0.44860333
67	0xbe4e3a44	-0.20139414
68	0x3dbe8e25	0.09304456
69	0x3f7d7203	0.99002093
70	0x3c6577fb	0.014005656
71	0x3d24ea5e	0.040262572
72	0xbf17b507	-0.592606
73	0xbc6168c0	-0.0137578845
74	0xbe2148c6	-0.15750417
75	0xbdeae693	-0.1146976
76	0x3edf195c	0.43574035
77	0xbcc5f564	-0.024164863
78	0xbe536a18	-0.2064594
79	0x3d82d23c	0.06387755
80	0xbf842720	-1.032444
81	0x3db081d2	0.08618511
82	0xbeadd2c5	-0.33949867
83	0xbd6d56ae	-0.057943992
84	0xbf25ac05	-0.64715606
85	0xbdd35156	-0.10318248
86	0x3e173ff7	0.14770494
87	0xbdaad7ee	-0.083419666
88	0xbdb304d0	-0.08741152
89	0xbe977ea9	-0.29588822
90	0x3dc4bbf6	0.09606163
91	0xbe56cbf8	-0.20976245
92	0x3f275647	0.65366024
93	0xbd6b9361	-0.0575136
94	0x3d8f2594	0.06989589
95	0xbde43517	-0.111429386
96	0x3e82e617	0.2556617
97	0xbdc3b4d9	-0.09555978
98	0xbe842cef	-0.25815532
99	0x3dc0e1d4	0.09418073
100	0xbca94b98	-0.020665929
101	0xbd405876	-0.046959363
102	0x3e41441b	0.18873636
103	0xbd80869e	-0.06275676
104	0x3d776614	0.060400084
105	0xbe0a0028	-0.13476622
106	0x3e4274d5	0.1898988
107	0xbe39f066	-0.18158111
108	0x3c216211	0.009850041
109	0xbce4ce02	-0.027930263
110	0xbdecacdc	-0.11556408
111	0xbd308fd4	-0.043105915
112	0xbe7de726	-0.24795207
113	0xbdaffd3a	-0.08593221
114	0x3e06c677	0.13161646
115	0xbe61fa2b	-0.22068088
116	0xbc81eef8	-0.01586102
117	0x3e644d72	0.22295168
118	0x3e9b74fb	0.30362687
119	0xbc8c22a3	-0.01710636
120	0x3da51c7d	0.08062074
121	0x3cc9a1ff	0.024613379
122	0xbd1e6419	-0.03866968
123	0xbe135675	-0.1438845
124	0x3d751971	0.059838716
125	0x3e17cef1	0.14825036
126	0x3e3e9164	0.1861015
127	0x3b1eaefe	0.002421319
128	0x3d8decc8	0.06929928
129	0x3ddd5378	0.10806936
130	0xbd18f9c8	-0.037347585
131	0xbd642d60	-0.055707335
132	0xbd072a2c	-0.032999203
133	0xbb54cbc0	-0.0032470077
134	0xbdcc1d54	-0.099665314
135	0x3d6feda4	0.05857624
136	0xbd7ee8d8	-0.062233776
137	0xbcc75948	-0.024334565
138	0xbd58f294	-0.052965716
139	0x3d8c183a	0.06840558
140	0xbb3bd500	-0.0028660893
141	0xbddf3b30	-0.10899961
142	0xbdb48f44	-0.08816388
143	0xbd298734	-0.041388705
144	0xbdc62e2a	-0.09676774
145	0x3d157eb8	0.0364978
146	0xbd928184	-0.071536094
147	0xb9c93200	-0.0003837496
148	0x3d9c7198	0.07638854
149	0xbdd95112	-0.10611166
150	0xbdc85508	-0.097818434
151	0x3da02772	0.078200236
152	0x3c6c6de0	0.014430493
153	0xbd9b3e76	-0.07580273
154	0xbd420c34	-0.04737492
155	0x3d9aa6d6	0.07551353
156	0xbb303a80	-0.0026890337
157	0x3d8553a4	0.06510094
158	0x3de2ca0e	0.11073695
159	0x3d802410	0.062568784
160	0x3df995c2	0.12186767
161	0xbc52fff0	-0.012878403
162	0xbdbfda38	-0.09367794
163	0x3cb45028	0.022010878
164	0xbd066434	-0.032810405
165	0x3dadeac8	0.084920466
166	0x3da146a6	0.07874803
167	0xbd9333ae	-0.071875915
168	0x3d319924	0.043358937
169	0x3c618810	0.01376535
170	0xbdb3722e	-0.087620124
171	0x3d57a584	0.052648082
172	0xbda5fca4	-0.08104828
173	0xbc9b0418	-0.01892285
174	0xbda080fe	-0.07837103
175	0x3da046f4	0.07826033
176	0x3d01c8f4	0.031685784
177	0x3d135a58	0.03597483
178	0xbdb758a4	-0.08952454
179	0xbd241704	-0.040061012
180	0xbd9fb7ea	-0.07798751
181	0xbdd567fa	-0.104202226
182	0x3c272b30	0.010203168
183	0xbd87a6ec	-0.06623635
184	0xbdbab39e	-0.091162905
185	0x3cd34320	0.025788844
186	0x3dd40168	0.10351831
187	0x3de302ba	0.110845044
188	0xbdda9610	-0.106731534
189	0xbddcc74c	-0.107802
190	0xbc0e2040	-0.008674681
191	0xbcc39200	-0.02387333
192	0xbeade663	-0.33964834
193	0x3dd9703f	0.10617112
194	0xbf028023	-0.5097677
195	0x3df4ba67	0.11949616
196	0xbeb13e7f	-0.34617993
197	0x3f797c7a	0.9745556
198	0x3d51d5be	0.05122923
199	0x3dabb2dc	0.08383724
200	0x3db6dbc0	0.08928633
201	0xbd8007f4	-0.06251517
202	0x3e807c16	0.2509467
203	0x3c818b78	0.015813574
204	0x3f2aadea	0.6667162
205	0xbdf4430e	-0.11926852
206	0x3e7249fd	0.23661037
207	0x3bca56b8	0.0061748885
208	0x3bdd554f	0.0067545543
209	0x3dd32521	0.10309816
210	0xbea86881	-0.3289223
211	0x3e29ac9f	0.16569756
212	0xbe43807c	-0.19091982
213	0xbe2903c4	-0.16505343
214	0x3d3ece33	0.046583366
215	0x3c9b36b3	0.018946981
216	0x3d3f96d8	0.046774715
217	0x3f2c8520	0.6739063
218	0xbb870da0	-0.0041214973
219	0x3bc46549	0.0059935194
220	0xbe85d8d6	-0.26141995
221	0x3dba35c3	0.090922855
222	0xbd918e46	-0.07107215
223	0x3dba5368	0.0909794
224	0x3e602bea	0.21891752
225	0x3d90ba63	0.070668004
226	0x3d59a36b	0.053134363
227	0x3e288eb5	0.16460688
228	0xbdaf2a9e	-0.085530505
229	0xbd524ca0	-0.051342607
230	0x3d10f6a9	0.035391483
231	0x3d349e54	0.044096306
232	0x3dadda80	0.08488941
233	0xbd54d24d	-0.05195837
234	0x3ec35bd4	0.38155997
235	0xbe86b626	-0.26310843
236	0x3da28fbf	0.07937574
237	0xbbf9400a	-0.007606511
238	0x3dab1627	0.083538346
239	0xbd3a9830	-0.045555294
240	0xbd64bf11	-0.055846278
241	0xbd69d48c	-0.057087466
242	0x3d9f8acc	0.07790145
243	0x3eb7d2a0	0.35902882
244	0x3bb62560	0.0055586547
245	0xbdaaf382	-0.08347227
246	0x3e8d6fae	0.27624267
247	0xbd763cc5	-0.060116548
248	0x3dcb4f94	0.09927288
249	0x3d32e352	0.04367382
250	0xbc07fadc	-0.008299556
251	0xbdafeaa3	-0.08589675
252	0x3e1d29ba	0.15347949
253	0xba1ecb04	-0.00060574734
254	0xbc834bc4	-0.016027339
255	0x3d37e124	0.044892445

network.2.bias f4 [64]
0	0xbd8318a6	-0.06401186
1	0xbb85b5f9	-0.0040805307
2	0xbdbf0b8c	-0.09328374
3	0xbdf2c489	-0.11853892
4	0xbdb4ba2e	-0.088245735
5	0xbba64594	-0.0050742123
6	0x3e3db803	0.18527226
7	0x3d9e7283	0.07736685
8	0xbd82e228	-0.06390792
9	0xbd72745e	-0.059193008
10	0x3ded3bfb	0.11583706
11	0x3e38360f	0.17989372
12	0x3c9332da	0.017968584
13	0x3d20159a	0.0390831
14	0x3d76d890	0.060265124
15	0xbca90809	-0.020633714
16	0x39396e9b	0.00017684179
17	0x3d53103a	0.051529147
18	0xbde08ebf	-0.10964727
19	0xbbc50458	-0.0060124807
20	0xbcdbf133	-0.026848411
21	0x3b5aebe9	0.0033404774
22	0x3d066507	0.03281119
23	0x3d223988	0.039605647
24	0x3db93bf5	0.09044639
25	0xbcf0ad4a	-0.029379506
26	0xbd95069a	-0.0727665
27	0xbb8c380a	-0.0042791413
28	0x3d4dfa80	0.050287724
29	0x3e1e8073	0.15478687
30	0x3e414ef5	0.18877776
31	0xbb8eeeee	-0.0043619787
32	0xbd1142d7	-0.035464134
33	0x3d34d4a9	0.04414812
34	0xbcaa6ac8	-0.02080287
35	0x3e39e2b3	0.18152885
36	0x3d69adf4	0.05705066
37	0x3e16145f	0.14656208
38	0xbc3833a1	-0.011242778
39	0x3cd8c979	0.026463257
40	0xbdfa5385	-0.12222961
41	0xbe12f191	-0.14349963
42	0x3cea7956	0.02862231
43	0xbce45980	-0.027874708
44	0xbddb7b46	-0.10716872
45	0x3cbb87dd	0.022891933
46	0x3d657f21	0.056029443
47	0x3dbd8883	0.09254553
48	0xbd810202	-0.06299211
49	0x3d935cd1	0.07195438
50	0xbcdd2340	-0.026994348
51	0xbde78ed6	-0.11306541
52	0xbdc04698	-0.09388465
53	0x3cdf565f	0.027262865
54	0xbde77c5f	-0.11303019
55	0x3e00eac1	0.12589552
56	0x3dbe7bb3	0.093009375
57	0xbdac6e67	-0.08419495
58	0x3e2a5516	0.1663402
59	0xbbfc0f0a	-0.0076922225
60	0x3da9c5fb	0.08289715
61	0xbc1a2cfc	-0.009410139
62	0x3b1122b3	0.0022145926
63	0xbcc451c9	-0.02396478

network.4.weight f4 [2, 64]
0	0x3cb8d366	0.02256174
1	0x3eeb6160	0.4597273
2	0x3b023340	0.0019866973
3	0x3e71d272	0.23615435
4	0x3e29a7f7	0.1656798
5	0x3ea86a94	0.32893813
6	0xbec21641	-0.37907603
7	0xbe8578c9	-0.26068714
8	0xbce39684	-0.027781732
9	0xbd14e4d4	-0.03635104
10	0x3efb365b	0.49064907
11	0x3f06722d	0.5251797
12	0xbeaf8345	-0.34279838
13	0x3e3d625e	0.18494555
14	0xbe6adec4	-0.22936541
15	0xbdfc97a7	-0.12333613
16	0x3d8b2f32	0.06796111
17	0xbe973850	-0.2953515
18	0xbd4cac67	-0.049969103
19	0xbe945c75	-0.2897679
20	0x3d8aa52d	0.06769786
21	0xbdca16f9	-0.09867663
22	0xbe40561d	-0.1878285
23	0xbe4d0d24	-0.20024544
24	0xbe6e9b65	-0.23301466
25	0x3e53c43a	0.20680323
26	0x3e800166	0.25001067
27	0x3ea49c02	0.32150275
28	0x3e38c845	0.18045147
29	0xbe88eaf5	-0.26741758
30	0xbe8c753a	-0.27433187
31	0xbe396870	-0.18106246
32	0x3d06c1ff	0.032899853
33	0x3e1de2df	0.15418576
34	0x3df0d85d	0.11760018
35	0xbe7c8ab7	-0.2466229
36	0x3d882604	0.06647876
37	0x3f3293e3	0.6975691
38	0x3ef8e45b	0.4861172
39	0x3e53e3cd	0.20692368
40	0xbee776c8	-0.4520781
41	0xbe86ae98	-0.2630508
42	0x3e911a9b	0.2834061
43	0xbf87b534	-1.0602174
44	0x3d932d49	0.07186372
45	0xbebc12c0	-0.36733055
46	0xbee4e0be	-0.44702715
47	0xbe6fc7bb	-0.23416035
48	0x3e808499	0.25101164
49	0x3da1f451	0.07907928
50	0xbe8bacb5	-0.27280203
51	0x3e13953d	0.14412399
52	0x3b6c9940	0.0036102086
53	0x3e83682f	0.25665423
54	0xbc65c644	-0.014024321
55	0x3ed5ab28	0.41732144
56	0xbe8495c3	-0.2589551
57	0xbf956372	-1.1670973
58	0xbe60fc0d	-0.2197115
59	0x3e11cc28	0.14238036
60	0xbec043a1	-0.37551597
61	0x3ebd6e8e	0.3699841
62	0x3ebd3a17	0.36958382
63	0xbe4b7c77	-0.19871698
64	0xbbae7c6b	-0.0053248904
65	0x3edadc05	0.42745987
66	0x3c56dcc0	0.013114154
67	0x3e077f03	0.13232045
68	0x3e782f7f	0.24236868
69	0x3ecb2e43	0.39683732
70	0xbeec0bc6	-0.46102732
71	0xbe962541	-0.29325297
72	0x3ceff21c	0.029290251
73	0x3d922d36	0.071375296
74	0x3f07da79	0.5306774
75	0x3f06bffc	0.52636695
76	0xbe0ac9c2	-0.13553527
77	0x3e28f36d	0.1649911
78	0xbe5c63a9	-0.21522392
79	0xbe3d90b1	-0.18512227
80	0x3e71cff5	0.23614486
81	0xbe0156e6	-0.12630805
82	0x3dd3463e	0.10316132
83	0xbe84842d	-0.25882092
84	0x3d8ce143	0.06878903
85	0xbe940ffb	-0.28918442
86	0xbea05dab	-0.31321463
87	0xbe8b2e07	-0.27183554
88	0xbe397c89	-0.18113913
89	0x3e8578b4	0.26068652
90	0x3e2f0795	0.17092736
91	0x3ec5b73c	0.3861636
92	0x3e3c6458	0.18397653
93	0xbe2fc4d2	-0.17164925
94	0xbe899bf5	-0.26876798
95	0xbe905218	-0.28187633
96	0xbd29bb17	-0.04143819
97	0x3e4e768a	0.20162407
98	0x3e1d162c	0.15340489
99	0xbe843f99	-0.2582977
100	0x3cd2da6a	0.025738914
101	0x3f0f7de7	0.56051487
102	0x3eccfc65	0.40036312
103	0x3e5353d6	0.2063745
104	0xbe509a62	-0.20371392
105	0xbee43a18	-0.44575572
106	0x3ecab691	0.39592412
107	0xbf8ae658	-1.0851545
108	0x3cc02cfe	0.023458954
109	0xbe4c26cb	-0.19936673
110	0xbf0ec449	-0.5576826
111	0xbe6a9442	-0.22908118
112	0x3e764e8a	0.24053398
113	0xbd52ffa9	-0.051513348
114	0xbe86f65a	-0.26359826
115	0x3de49c36	0.11162607
116	0x3c971030	0.018440336
117	0x3e98b9a1	0.29829124
118	0x3d84d38c	0.06485662
119	0x3f0cc919	0.5499435
120	0xbdc54c45	-0.09633688
121	0xbf8f05cc	-1.1173644
122	0xbe365572	-0.17806032
123	0x3e5b6466	0.21425018
124	0xbe9d76b3	-0.30754623
125	0x3eb404eb	0.35160002
126	0x3e81a78d	0.25323144
127	0xbec94d1d	-0.39316645

network.4.bias f4 [2]
0	0xbd561a16	-0.05227097
1	0xbe1894df	-0.1490054
